Project2/DQN_liuxingyan/dqn_model.pth (torch, 22556 bytes, 6 tensors)

fc1.weight f4 [64, 8]
0	0x3f490504	0.7852328
1	0x3fcdb1fd	1.6069943
2	0x3e4c900d	0.19976826
3	0xbfa0fa74	-1.2576432
4	0x3ff5f973	1.9216751
5	0x3eaf9cec	0.3429941
6	0xbf577438	-0.8416171
7	0x3dc23687	0.094830565
8	0xbe36d106	-0.17853174
9	0x40383e2b	2.8787944
10	0x3e47f91d	0.19528623
11	0xbf83cc29	-1.029668
12	0x3f8c5856	1.0964458
13	0x3f5cd057	0.862554
14	0xbe6e6b7a	-0.23283187
15	0xbf2e46d0	-0.680768
16	0x3bb009ce	0.0053722626
17	0x3f0c16ac	0.54722095
18	0x3e872e6d	0.26402608
19	0x3f4b0fac	0.7932079
20	0xbee198bd	-0.44061843
21	0xbe8c5a3e	-0.274126
22	0xbe94da23	-0.29072675
23	0xbc960de0	-0.018317163
24	0xc0075507	-2.1145647
25	0x3e9753cc	0.2955612
26	0xbf99635d	-1.1983448
27	0xbed61a76	-0.41817063
28	0xbfb2a5b2	-1.3956816
29	0xbdf40110	-0.11914265
30	0x3e9ff95c	0.31244934
31	0x3e99fbfa	0.30075055
32	0xbeea6dd8	-0.4578693
33	0x3fecdf45	1.8505636
34	0xbf2ba149	-0.67042977
35	0xbf7702bc	-0.9648855
36	0xbe5df4fc	-0.21675485
37	0x3db04e8e	0.08608733
38	0x3df04a97	0.11732977
39	0x3f03632f	0.5132322
40	0xbf05cd11	-0.5226603
41	0x3f4772e2	0.7790967
42	0xbe2bd251	-0.16779448
43	0x3f0b40fb	0.5439603
44	0xbe8b5d22	-0.27219492
45	0xbfd8bb2d	-1.6932122
46	0xbef3ccd7	-0.47617218
47	0x3f21e873	0.63245314
48	0x3eda0ed3	0.42589435
49	0xbf6a511a	-0.9153
50	0x3ecec0e6	0.40381545
51	0xbeeb3a70	-0.45943022
52	0xbf597ad2	-0.84953034
53	0xbf5362d3	-0.8257267
54	0x3e064e93	0.13115911
55	0x3ee5eee2	0.44908816
56	0x3de195f8	0.110149324
57	0x40213b18	2.5192318
58	0xbeca5825	-0.39520374
59	0xbeb32a04	-0.34992993
60	0xbeac76a8	-0.33684278
61	0xbefff6fd	-0.49993125
62	0xbf8491bb	-1.0356973
63	0x3dacd8e2	0.084398046
64	0xbf1c8ba1	-0.61150557
65	0x4093203f	4.5976863
66	0xbe0fd027	-0.14044248
67	0xbe16ba94	-0.14719611
68	0x3f9f8fd8	1.2465773
69	0xbdba7a85	-0.091054
70	0x3e8ba113	0.27271327
71	0xbed31900	-0.4123001
72	0x3e81a22f	0.2531905
73	0x3f1edbf4	0.6205437
74	0xbcba42f9	-0.022737013
75	0x3f3ff0d9	0.7497688
76	0xbeea1f85	-0.45727172
77	0xbebf8750	-0.37407923
78	0xbe4b7696	-0.19869456
79	0x3e0be594	0.13661796
80	0xbe74c777	-0.23904215
81	0x3f831eb6	1.0243747
82	0xbe324846	-0.17410383
83	0x3ed2e8f9	0.4119337
84	0x3e12a281	0.14319803
85	0x3e150240	0.1455164
86	0x3d7fcc32	0.062450595
87	0x3d0ae172	0.033906408
88	0xbdb5fe54	-0.088864
89	0xbe24b136	-0.16083226
90	0xbf9abd14	-1.2088952
91	0x3e90349c	0.28165138
92	0x3f23f0a9	0.64039093
93	0xbf91c3bc	-1.1387858
94	0xbf7d5ab0	-0.98966503
95	0x3d956843	0.07295277
96	0xbeacd0f2	-0.33753163
97	0x400fcc91	2.2468607
98	0x3eaf870c	0.3428272
99	0xbf2a20aa	-0.6645609
100	0x3f7a8527	0.97859424
101	0x3f1edd98	0.62056875
102	0xbcde6071	-0.027145596
103	0x3d1e304a	0.03862027
104	0x3f5b82dc	0.8574655
105	0xbf872120	-1.0556984
106	0x3ef0df3f	0.47045323
107	0xbfabb0c2	-1.3413317
108	0xbe9047ad	-0.28179684
109	0xbe9fc6b5	-0.3120629
110	0x3f02e79b	0.5113465
111	0xbeb95161	-0.361949
112	0xbf2d5530	-0.6770811
113	0x3d408e6d	0.047010828
114	0xbeaf16d3	-0.341971
115	0x40022a34	2.0338259
116	0x3e25039b	0.16114657
117	0x3d9db88e	0.07701217
118	0xbec277a7	-0.37981912
119	0x3d009c50	0.03139907
120	0xbde89e9e	-0.11358379
121	0xbf373ded	-0.71578866
122	0x3f15d891	0.5853358
123	0xbfa313ea	-1.2740452
124	0xbf310070	-0.6914129
125	0xbf674c9b	-0.90351266
126	0x3ec8256b	0.39091048
127	0x3db815ec	0.08988556
128	0x3d8efeb2	0.06982173
129	0xbe89f8b1	-0.2694755
130	0x3f3b1446	0.7307781
131	0xbee18b17	-0.4405143
132	0x3e17c6c9	0.14821924
133	0x3fd360e7	1.6513947
134	0xbeb923af	-0.36160037
135	0x3e657760	0.22408819
136	0x3fcfe359	1.6241256
137	0x3f0f1c45	0.5590251
138	0x3fa46a8b	1.2845014
139	0x3f81db4b	1.0145048
140	0x3d1fa9a6	0.03898015
141	0x3d1ed2c8	0.038775235
142	0xbe2758e0	-0.16342497
143	0xbe844ece	-0.25841373
144	0xbf6141bf	-0.87990946
145	0xbedeb041	-0.43493846
146	0xbed5d67c	-0.417652
147	0xbffd40c9	-1.9785396
148	0xbcddd267	-0.027077867
149	0xbe50ce8c	-0.20391291
150	0x3eb08894	0.344792
151	0xbd3f1821	-0.04665387
152	0xbea0a2a2	-0.3137408
153	0x4032356a	2.7845101
154	0x3eabc328	0.3354733
155	0xbf243691	-0.6414576
156	0x3f99a8f9	1.2004691
157	0xbc464165	-0.012100552
158	0x3edadb4b	0.42745432
159	0xbf35f610	-0.71078587
160	0xbe80dc60	-0.25168133
161	0x3f099476	0.5374216
162	0xbe2816fb	-0.16415016
163	0xbfda0ade	-1.7034566
164	0x3df061fd	0.1173744
165	0x3eac1e9b	0.336171
166	0xbe23a6a7	-0.15981542
167	0x3ce23d91	0.027617248
168	0x3e21f7dc	0.15817207
169	0xbe033b7f	-0.12815665
170	0xc00612c3	-2.0948951
171	0xc00ad1f5	-2.1690648
172	0xbebf7deb	-0.37400755
173	0xbf055860	-0.52087975
174	0x3ecc5381	0.39907458
175	0x3e664c28	0.22489989
176	0xbc9abde9	-0.018889384
177	0xbe3baf1a	-0.18328515
178	0x3e63b8e7	0.22238503
179	0xbf9228fb	-1.1418756
180	0xbdc98d5b	-0.098414145
181	0xbfbd7584	-1.4801488
182	0xbee63d29	-0.44968536
183	0x3f05a5eb	0.52206296
184	0x3f3b96ef	0.7327718
185	0x3f5f8fc0	0.8732872
186	0xbfbed1b4	-1.4907746
187	0xbed22065	-0.4104034
188	0x3d24c530	0.040227115
189	0xbe64728d	-0.22309323
190	0xbe6d2d90	-0.23161912
191	0xbeb34ff2	-0.3502193
192	0xbee00aaa	-0.43758136
193	0x3d8d0cfb	0.068872415
194	0x3db6ccaa	0.08925755
195	0xbf2f6000	-0.6850586
196	0x3da9459f	0.08265232
197	0x3f22bef5	0.6357263
198	0x3d31f8df	0.043450233
199	0xc00447ba	-2.0668778
200	0x3d83441e	0.06409477
201	0x40061aba	2.0953813
202	0xbd58950f	-0.05287653
203	0xbfe48380	-1.7852631
204	0x3f342bd0	0.7037935
205	0x3f05ad82	0.52217877
206	0xbee23267	-0.4417908
207	0xbf04a73b	-0.51817673
208	0xbe8becda	-0.2732914
209	0x3eef1379	0.46694544
210	0xbf39cf25	-0.725817
211	0xbd6d78a8	-0.057976395
212	0x3de48010	0.111572385
213	0xbedcbf11	-0.43114522
214	0x3e0fc8a9	0.1404139
215	0xbf031387	-0.5120167
216	0xbb8dd65c	-0.004328532
217	0xbdf9a4c7	-0.12189632
218	0x40010875	2.0161412
219	0x3f83bbe2	1.0291712
220	0x3f1814f5	0.5940698
221	0x3f1292e7	0.57255405
222	0x3c0386a8	0.00802771
223	0xbe9a1673	-0.30095252
224	0x3caf1b57	0.021375341
225	0x3fb0e9aa	1.3821309
226	0x3c7f7311	0.015591399
227	0xbfa7fbc8	-1.3123713
228	0xbef8b15d	-0.48572817
229	0xbf03b8c1	-0.5145379
230	0x3da7e746	0.08198409
231	0x3b5eda21	0.0034004527
232	0xbf236770	-0.6382971
233	0x3eb3e22d	0.35133496
234	0xbf1015c6	-0.56283224
235	0xbfa16b85	-1.2610937
236	0xbd9d8cce	-0.07692872
237	0x3f0e3f2e	0.55565155
238	0xbea1266b	-0.31474623
239	0x3f0367b4	0.51330113
240	0xbdefcee6	-0.117093846
241	0x3ec45637	0.38347027
242	0xbd9ae288	-0.07562739
243	0x3c8bddb3	0.017073488
244	0x3ebff84a	0.37494117
245	0x3f0915e4	0.5354903
246	0x3d2f0e1a	0.042738058
247	0x3dd03d66	0.10167961
248	0xbdcf676a	-0.101271465
249	0x3ea78186	0.32716006
250	0x3de61ebf	0.11236333
251	0xbdc3ebe3	-0.09566476
252	0x3ea60568	0.32426
253	0x3f46ae91	0.7761012
254	0x3d892aef	0.06697642
255	0x3ea64829	0.3247693

fc1.bias f4 [64]
0	0xbe64c1b2	-0.22339514
1	0x3d997097	0.07492178
2	0x3f6a9809	0.9163824
3	0x3e871940	0.26386452
4	0x3de27364	0.11057165
5	0x3cc17e1f	0.02361971
6	0x3f2a5a26	0.66543806
7	0x3ecb08bb	0.39655098
8	0x3d187b6b	0.037227076
9	0x3f8670ab	1.0503134
10	0x3f33aefd	0.70188886
11	0x3e818dde	0.2530355
12	0x3eb7e4ea	0.35916835
13	0xbd30ac11	-0.043132845
14	0x3f239cc5	0.63911086
15	0xbe88775b	-0.2665356
16	0x3f6d1d55	0.9262288
17	0x3ca436eb	0.020045718
18	0x3f12ba97	0.57315964
19	0x3e303d64	0.17210919
20	0xbf066516	-0.52497995
21	0x3f79eb2f	0.97624487
22	0xbf604e28	-0.87619257
23	0x3f422671	0.75839907
24	0x3dd2f32a	0.10300286
25	0x3de5050b	0.111826025
26	0x3f6840b5	0.90723735
27	0x3ea1bc07	0.31588766
28	0x3eec720d	0.46180764
29	0x3ef9d728	0.48796964
30	0x3f1799b2	0.59218895
31	0x3f6015a7	0.8753304
32	0x3ecbea08	0.3982699
33	0xbd81dfdd	-0.06341527
34	0xbd9a7acf	-0.07542955
35	0x3f5a3ddd	0.85250646
36	0x3f291a3d	0.6605566
37	0xbf2c622f	-0.67337316
38	0x3efdea23	0.49592695
39	0xbf992747	-1.1965111
40	0x3e994f57	0.29943344
41	0xbf2b5d93	-0.6693966
42	0x3f0d8421	0.5527974
43	0x3f5e8d30	0.86934185
44	0x3f054a2a	0.5206629
45	0xbf891c6b	-1.0711797
46	0x3f51e55e	0.8199061
47	0x3f450ee4	0.76975846
48	0xbe0813d8	-0.1328882
49	0x3e920e2c	0.28526437
50	0x3aaaf4a1	0.0013042876
51	0x3f5a8ea8	0.85373926
52	0x3faec8fa	1.3655083
53	0x3f883a90	1.0642872
54	0x3f120b64	0.5704863
55	0x3f22e760	0.636343
56	0x3d2f9948	0.04287079
57	0x3f2cb9bb	0.674709
58	0xbe33a2cf	-0.17542575
59	0x3e9f0826	0.31060904
60	0x3c55367c	0.013013478
61	0xbf012a54	-0.5045521
62	0x3ec62b24	0.3870479
63	0x3f043f3d	0.51658994

fc2.weight f4 [64, 64]
0	0x3ea13bc2	0.31490904
1	0x3ec39597	0.38200065
2	0x3d8f0203	0.069828056
3	0x3f0d7077	0.5524973
4	0x3eac738d	0.33681908
5	0xbebf559f	-0.3737001
6	0xbf3ffdd4	-0.74996686
7	0x3d6fcf06	0.058547042
8	0x3e680384	0.22657591
9	0x3dc24348	0.09485489
10	0x3f019924	0.506243
11	0xbf2b0440	-0.6680336
12	0x3f14a279	0.58060414
13	0xbc3cf0bf	-0.011532008
14	0xbf3b4b80	-0.7316208
15	0x3e1cf98a	0.15329567
16	0xbd57057b	-0.05249546
17	0xbed88e19	-0.42295912
18	0x3e892a79	0.26790217
19	0x3e9f0906	0.31061572
20	0x3de7f2a6	0.113255784
21	0x3e047196	0.12933955
22	0x3ea626d3	0.32451496
23	0x3f39a33f	0.7251472
24	0x3d740f51	0.05958492
25	0x3e9cb22f	0.30604693
26	0xbdad703d	-0.084686734
27	0x3f44a126	0.76808393
28	0x3e8241fe	0.25440973
29	0xbeb3abd8	-0.35092044
30	0x3e8ff030	0.28112936
31	0x3e9277e3	0.2860709
32	0xbe349639	-0.1763543
33	0x3ef94435	0.4868485
34	0x3f0edda8	0.5580697
35	0x3dcc1cb7	0.099664144
36	0xbe8f52f3	-0.27992973
37	0xbe087f48	-0.13329804
38	0xbcee8779	-0.029117333
39	0x3e6be5eb	0.23036925
40	0xbed02257	-0.406512
41	0xbf284d14	-0.6574261
42	0xbe18619f	-0.1488099
43	0x3dc2d07d	0.09512422
44	0xbf121e7d	-0.5707777
45	0xbf0abcc7	-0.541943
46	0xbce7987f	-0.028270958
47	0xbf5b1aa2	-0.85587513
48	0x3e9f707d	0.3114051
49	0x3ed035bf	0.40666005
50	0x3f1fa86b	0.6236636
51	0x3e8da0f3	0.27661857
52	0xbe040ba6	-0.12895069
53	0x3eba1bfc	0.36349475
54	0xbeea6af5	-0.45784727
55	0xbe940002	-0.28906256
56	0xbd1d54cb	-0.038410943
57	0x3ed85a72	0.42256504
58	0x3fb1ceae	1.3891199
59	0xbd4b4fcc	-0.049636647
60	0x3f317896	0.69324625
61	0x3da01efe	0.07818411
62	0x3f440e75	0.7658456
63	0xbf09bdcb	-0.53805226
64	0x3d64ca1c	0.05585681
65	0x3d29d0ec	0.04145901
66	0x3d00a013	0.03140266
67	0xbcccc056	-0.024994057
68	0xbc845a2c	-0.016156279
69	0xbdab6b2e	-0.08370052
70	0x3c81c390	0.015840322
71	0x3b9670bc	0.0045910757
72	0xbdd15c1a	-0.10222645
73	0xbdb7d9af	-0.08977067
74	0x3e0f58d6	0.13998732
75	0x3d9a06e4	0.075208455
76	0x3d076f03	0.033064853
77	0xbd3cdbf3	-0.046108197
78	0x3ca6c806	0.02035905
79	0xbd9f5f5a	-0.07781859
80	0xbe17468a	-0.14773002
81	0xbd5d2348	-0.053988725
82	0xbe038172	-0.12842348
83	0xbe1371d1	-0.14398886
84	0xbdec8800	-0.115493774
85	0xbdb619ee	-0.088916644
86	0xbe078f4e	-0.1323826
87	0x3d397b93	0.045283865
88	0xb985a200	-0.00025488436
89	0xbe3b36b5	-0.18282588
90	0x3e0bf459	0.1366743
91	0xbd945ad2	-0.07243885
92	0xbe0637c8	-0.13107216
93	0xbd8dcc48	-0.06923729
94	0xbcc80833	-0.024417972
95	0x3bfa8f40	0.0076464713
96	0xbcc1652b	-0.023607811
97	0x3e062f0d	0.13103886
98	0xbe13ebdc	-0.14445442
99	0x3c2770e2	0.010219784
100	0xbe1006c6	-0.14065084
101	0x3daf498d	0.085589506
102	0xbddc9e5b	-0.107723914
103	0xbe1436b8	-0.14473999
104	0x3d7ab248	0.06120518
105	0x3cc54ab8	0.02408348
106	0x3d25f5e8	0.040517718
107	0xbe110ece	-0.14165804
108	0x3d185120	0.03718674
109	0x3d062bb4	0.032756522
110	0xbd819ff8	-0.0632934
111	0xbd35869d	-0.04431783
112	0xbe325d60	-0.17418432
113	0xbdfbeb53	-0.12300744
114	0xbd4fbc3d	-0.050716627
115	0xbd622ea5	-0.055220265
116	0xbe51b10f	-0.20477699
117	0xbdfc258b	-0.12311848
118	0x3dd7c630	0.10535848
119	0xbca12908	-0.019672886
120	0x3db3c1f8	0.08777231
121	0xbd8e3c43	-0.06945088
122	0xbcd73a3c	-0.026272886
123	0x3df937d0	0.121688485
124	0xbd624b67	-0.05524769
125	0xbdbb8a55	-0.09157244
126	0x3daaa68e	0.08332549
127	0xbdb4884b	-0.08815058
128	0x3d6909ce	0.056894116
129	0xbdfbba48	-0.1229139
130	0xbdba57e2	-0.090987936
131	0xbe0a58d0	-0.13510442
132	0xbe1a503b	-0.15069668
133	0xbd7fe880	-0.06247759
134	0x3d3186a6	0.0433413
135	0x3d20593c	0.0391476
136	0xbdeb2498	-0.11481589
137	0xbdedb4c4	-0.11606744
138	0x3c8ce94e	0.017201092
139	0xbe0e4c56	-0.13896307
140	0xbe0b1e39	-0.13585748
141	0x3d3460b9	0.044037554
142	0xbd420400	-0.047367096
143	0xbe0586f7	-0.13039766
144	0xbcae8070	-0.021301478
145	0x3d57b220	0.052660108
146	0xbd9e58dc	-0.07731792
147	0x3da9d009	0.08291633
148	0xbd7e6efd	-0.062117565
149	0x3cdb9e49	0.026808875
150	0xbdab7039	-0.08371014
151	0xbe065b6c	-0.13120812
152	0x3d17ed09	0.03709129
153	0xbdb9d513	-0.09073844
154	0xbddf9a5b	-0.10918113
155	0xbe005be5	-0.12535055
156	0xbd98afe5	-0.07455424
157	0xbe296538	-0.16542518
158	0x3d91ef8e	0.071257696
159	0xbd06c2d1	-0.032900635
160	0xbcceec1e	-0.025259074
161	0xbd2ce80d	-0.04221349
162	0xbd19711d	-0.03746139
163	0xbddcac28	-0.10775024
164	0xbd32d2ba	-0.043657996
165	0x3d3a115d	0.045426715
166	0xbd803825	-0.06260709
167	0x3d9b3e4a	0.0758024
168	0x3c245e83	0.010032299
169	0x3d35c522	0.044377454
170	0x3d994ee4	0.0748575
171	0x3d584e09	0.052808795
172	0xbdfa85a6	-0.12232523
173	0x3d8c6e6e	0.06857
174	0x3d2612d4	0.0405453
175	0xbdfbe8fe	-0.12300299
176	0x3c3f2c37	0.0116682565
177	0xbe2041e4	-0.15650135
178	0x3bb1faf5	0.0054315277
179	0x3ce0712f	0.02739772
180	0xbcb9c77a	-0.022678126
181	0xbe0ca26b	-0.13733833
182	0xbda1c6bc	-0.07899234
183	0xbce00b6e	-0.0273492
184	0x3d69657d	0.056981552
185	0xbde9c478	-0.114144266
186	0xbe1d5fe1	-0.15368606
187	0xbde6c75b	-0.11268493
188	0xbdafcda3	-0.08584144
189	0x3d21b52f	0.03947943
190	0xbd4b6026	-0.04965224
191	0xbe1a4dab	-0.1506869
192	0x3eb1b5da	0.34709054
193	0x3f0b0d43	0.5431711
194	0x3cf27487	0.02959658
195	0x3f5638dd	0.83680516
196	0x3f29814b	0.6621291
197	0x3ef05133	0.4693695
198	0xbe049148	-0.12946045
199	0x3e033a23	0.12815146
200	0x3f381b23	0.7191641
201	0xbdfe7e91	-0.124264844
202	0x3f145d5f	0.57954973
203	0xbe4e84ed	-0.20167895
204	0x3f16b2d7	0.5886664
205	0xbd44cd9f	-0.048047658
206	0x3fa2b8b3	1.2712616
207	0x3ecd4ddc	0.40098464
208	0x3e5ddbca	0.21665874
209	0x3f16f7ae	0.5897168
210	0xbe53010e	-0.20605871
211	0x3ed63d9b	0.41843876
212	0x3f13741b	0.5759904
213	0x3e9d51f1	0.3072658
214	0xbe9678a8	-0.29388928
215	0x3d43e525	0.04782595
216	0xbf07465b	-0.5284173
217	0x3ebaf712	0.36516625
218	0xbd147993	-0.036248755
219	0xbeb4dbb3	-0.35323867
220	0x3e9158c4	0.28388035
221	0x3de4e059	0.111756034
222	0xbe867065	-0.26257625
223	0xbed63879	-0.4183996
224	0x3ec379dd	0.38178912
225	0xbef6559b	-0.48112187
226	0xbea5a964	-0.32355797
227	0x3dd0b99a	0.10191651
228	0x3f3a2a33	0.7272064
229	0x3f2099b8	0.62734556
230	0x3fa412a8	1.2818193
231	0x3f49c2c2	0.788128
232	0xbe132e50	-0.14373136
233	0x3dbd1b22	0.09233691
234	0xbf0cc05c	-0.5498102
235	0xbebf3ed3	-0.3735262
236	0x3e12be08	0.14330304
237	0x3f4a19c5	0.7894557
238	0xbbfc69af	-0.007703028
239	0xbe008dee	-0.12554142
240	0x3f1fda00	0.62442017
241	0x3f20f622	0.6287557
242	0xbf95fc62	-1.1717646
243	0x3e5ac237	0.2136315
244	0xbf4a4d7f	-0.790245
245	0x3cfdf50a	0.031000633
246	0xbed0140a	-0.4064029
247	0x3eb3487b	0.35016236
248	0x3cf833fd	0.030298227
249	0x3e9b5df6	0.30345124
250	0xbf49f2c5	-0.7888606
251	0x3e3ec554	0.18629962
252	0xbf26e922	-0.6519948
253	0x3e91ac58	0.284518
254	0x3f19b50f	0.600419
255	0xbec8e416	-0.39236516

fc2.bias f4 [64]
0	0x3e67945d	0.2261519
1	0x3c179840	0.009252608
2	0x3cfdcba6	0.030980896
3	0x3edfca22	0.43708903
4	0x3dfe6c77	0.12423032
5	0xbe9a3a74	-0.3012272
6	0xbccafc6b	-0.024778565
7	0xbc73f160	-0.014889091
8	0x3e5b9013	0.21441679
9	0x3dfb1fff	0.12261962
10	0xbdf5c1bd	-0.11999843
11	0x3d9de573	0.077097796
12	0xbc32f5b5	-0.010922839
13	0xbe069432	-0.1314247
14	0xbb606d51	-0.0034244845
15	0xbdb49a5e	-0.08818506
16	0x3e0b5025	0.13604791
17	0xbe0ff12b	-0.14056842
18	0xbd986c43	-0.07442524
19	0x3f3fa936	0.7486757
20	0x3e02a40f	0.12757896
21	0xbdfa3b48	-0.12218338
22	0xbdbb5d60	-0.09148669
23	0xbe7436b6	-0.23848996
24	0x3f0746b7	0.5284228
25	0xbeabfcde	-0.3359136
26	0xbd80f429	-0.0629657
27	0x3d82ca32	0.06386222
28	0x3e216e2c	0.15764683
29	0x3e0c857f	0.137228
30	0xbd567ec3	-0.052366983
31	0xbdd14890	-0.10218918
32	0xbe670151	-0.22559096
33	0x3f13a1fd	0.5766905
34	0xbe963606	-0.29338092
35	0xbd19792d	-0.037469078
36	0x3e17b612	0.14815548
37	0xbe189673	-0.14901142
38	0xbe8a543f	-0.270174
39	0xbe12b526	-0.14326915
40	0x3f30d1c8	0.690701
41	0x3d22fb60	0.03979051
42	0xbeb23d68	-0.34812474
43	0x3fb05763	1.3776668
44	0x3c5efb3e	0.0136097055
45	0xbefa4e43	-0.48887834
46	0xbe2b1d2d	-0.16710348
47	0x3d4062e8	0.046969324
48	0x3daee70f	0.08540165
49	0xbe935280	-0.2877388
50	0xbe27ceb3	-0.16387443
51	0x3ec72653	0.38896427
52	0xbd06c4a0	-0.03290236
53	0x3f5d24e2	0.86384404
54	0xbe96ed2a	-0.29477817
55	0xbd4cde87	-0.050016906
56	0xbe0e5bc4	-0.13902193
57	0x3d258310	0.040408194
58	0xbd730ad4	-0.0593365
59	0x3f1252b8	0.5715747
60	0x3f1c1799	0.6097351
61	0x3f31c2d7	0.69437927
62	0x3e8e88e9	0.2783883
63	0xbec2329e	-0.37929243

fc3.weight f4 [4, 64]
0	0xbe992861	-0.2991362
1	0xbe0b6f3e	-0.13616654
2	0xbd354b33	-0.04426117
3	0xbf1a8241	-0.60355
4	0x3fadbd0b	1.3573316
5	0x3f0ee8ba	0.5582386
6	0xbdda8db4	-0.10671559
7	0x3f813f60	1.0097466
8	0x3f8ff8ab	1.1247762
9	0x3fa682c0	1.3008652
10	0x3fe7e767	1.8117493
11	0x3f80f39a	1.0074341
12	0x3eb79c4a	0.35861427
13	0x3d8dd114	0.06924644
14	0x3fc3d686	1.5299842
15	0x3fcf191c	1.6179538
16	0xbf31f6f8	-0.6951747
17	0xbed203c5	-0.410185
18	0xbf20d40a	-0.62823546
19	0x3fa021db	1.2510332
20	0xbf412907	-0.7545323
21	0x3fb92245	1.4463583
22	0x3fd82736	1.6886966
23	0xbfb7678a	-1.4328473
24	0xbfdda168	-1.7314882
25	0xbeb374c7	-0.35050032
26	0x3b1aa294	0.002359544
27	0xbf3eef98	-0.7458434
28	0xbf5451a6	-0.82937086
29	0x3fc6539d	1.5494267
30	0xbf26f130	-0.6521177
31	0xbb8fc2cf	-0.0043872367
32	0xbf0d8423	-0.5527975
33	0x3f8ccbe3	1.0999721
34	0x3fa6ee29	1.3041431
35	0x3d5499ea	0.051904596
36	0x3f7691a5	0.96315986
37	0xbef768a5	-0.48322025
38	0xbf186dd5	-0.5954259
39	0x3d69267e	0.056921475
40	0x3f807c15	1.0037867
41	0xbdd9487c	-0.106095284
42	0xbef7d30e	-0.4840321
43	0x400e8f73	2.2275054
44	0x3fb87160	1.4409599
45	0xbf5d5b59	-0.8646751
46	0x3f01612a	0.50538886
47	0x3dc3d228	0.095615685
48	0x3d80ae36	0.06283228
49	0xbf58f4c6	-0.84748495
50	0xbf2b76f3	-0.6697838
51	0x3d9fe7ff	0.078079216
52	0x3d9ef9e8	0.077625096
53	0x3f8c61dc	1.0967364
54	0xbf5ab2a0	-0.8542881
55	0x3ffc3d07	1.9706124
56	0x3f895cee	1.0731485
57	0xbfaf8b25	-1.3714339
58	0xbb5b45fd	-0.0033458464
59	0x3e9f3faa	0.3110326
60	0x3f830bfd	1.0238034
61	0x3f9be1d1	1.2178289
62	0xbf0514f9	-0.51985127
63	0xbf88fce7	-1.070218
64	0x3eef89e0	0.46784878
65	0x3cd46977	0.025929196
66	0x3da5e6a0	0.08100629
67	0xbf149f22	-0.5805532
68	0x3f8f2050	1.1181736
69	0x3ecb4b60	0.39705944
70	0xbd97b5ec	-0.07407746
71	0x3f394f7e	0.7238692
72	0x3fa599dd	1.293758
73	0x3fbd1dc2	1.4774706
74	0x3fccb0c0	1.599144
75	0x3f903df2	1.1268904
76	0xbe45954e	-0.19295236
77	0x3cb5f724	0.022212572
78	0x400340b5	2.0508244
79	0x3fb4505a	1.4087021
80	0xbf1de686	-0.61679876
81	0xbf25c148	-0.6474805
82	0xbf7bd143	-0.98366183
83	0x3fa63061	1.2983514
84	0xbf30c714	-0.6905377
85	0x3fd11123	1.6333355
86	0x3fe33225	1.7749678
87	0xbdc9f3dd	-0.09860966
88	0xc0154434	-2.3322878
89	0xbf32fab4	-0.6991379
90	0x3d553234	0.05204983
91	0xbf6aceef	-0.91722006
92	0xbeff5e97	-0.49876854
93	0x3fb00822	1.3752482
94	0xbee05a14	-0.43818724
95	0xbd8d089c	-0.06886408
96	0xbf28b99f	-0.65908235
97	0x3f0e249a	0.555246
98	0x3f93bfd5	1.1542917
99	0x3dea5489	0.11441905
100	0x3ed7ec2c	0.42172372
101	0xbeeb8feb	-0.46008238
102	0xbf08aca9	-0.5338846
103	0x3ce2e990	0.027699262
104	0x3f5172cc	0.8181579
105	0x3da020cb	0.07818755
106	0xbf30827a	-0.6894909
107	0x400f9818	2.243658
108	0x3fa7fc16	1.3123806
109	0xbf1d5752	-0.61461365
110	0x3f953c2c	1.1658988
111	0x3df30350	0.11865866
112	0xbcb66adf	-0.022267757
113	0xbf6ca675	-0.92441493
114	0xbf1d98d1	-0.61561304
115	0x3ec17895	0.3778731
116	0x3db3f736	0.08787386
117	0x3f92cc31	1.1468564
118	0xbf386cd1	-0.7204104
119	0x3fe968e4	1.8235135
120	0x3f7dbd61	0.99117094
121	0xbf90a395	-1.1299921
122	0xbe0a8ac9	-0.13529505
123	0x3e8ecf26	0.27892417
124	0x3f598004	0.8496096
125	0x3f7c449a	0.9854218
126	0xbf2e5aa2	-0.68107045
127	0xbfaaa676	-1.333205
128	0x3f30a76b	0.6900546
129	0xbe33fd85	-0.17577179
130	0x3d01240c	0.031528518
131	0xbee0984f	-0.43866202
132	0x3f43e9ff	0.76528925
133	0x3fac765b	1.3473619
134	0x3ceb1a60	0.0286991
135	0x3fb639e7	1.423642
136	0x3fbac9bc	1.4592814
137	0x3f718bf8	0.943542
138	0x3ffda044	1.9814534
139	0x3fb86944	1.4407125
140	0xbd202c42	-0.039104708
141	0x3ce75c08	0.028242126
142	0x3f6094af	0.87726873
143	0x3fcb0741	1.5861589
144	0xbf2f312a	-0.68434393
145	0xbe4553be	-0.19270226
146	0xbf277436	-0.654117
147	0x3f257a84	0.6464007
148	0xbf459364	-0.77178025
149	0x3faec388	1.3653421
150	0x3fef45a5	1.8693129
151	0xbe4ac723	-0.19802527
152	0xbf68c026	-0.90918195
153	0xbf6729a7	-0.9029793
154	0x3da5fce4	0.08104876
155	0xbf70be86	-0.94040716
156	0xbf66e5e1	-0.9019452
157	0x3fc46cb6	1.5345676
158	0xbef0abe0	-0.4700613
159	0xbcd76125	-0.02629144
160	0xbf896d8f	-1.073656
161	0x3fa12618	1.258975
162	0x3fb26210	1.3936176
163	0xbd3e83d0	-0.046512425
164	0x3fa4c5ec	1.2872901
165	0xbf3d94b5	-0.74055034
166	0xbf47e867	-0.7808899
167	0x3c8e9717	0.01740603
168	0x3fcc56a7	1.5963944
169	0x3c7a5f02	0.015281441
170	0xbf351e17	-0.7074904
171	0x40084ab2	2.129559
172	0x3fb37c65	1.4022337
173	0xbf4c7dd7	-0.79879516
174	0x3f080156	0.5312704
175	0xbc891119	-0.016731786
176	0x3da97974	0.082751185
177	0xbf41d94a	-0.7572218
178	0xbf316f78	-0.6931071
179	0x3f61eaa1	0.8824864
180	0xbd1f9998	-0.038964838
181	0x3f359056	0.70923364
182	0xbf5c14de	-0.8596934
183	0x3ff72950	1.9309483
184	0x3fadb5ed	1.3571144
185	0xbfb14a7a	-1.3850853
186	0xbd20c642	-0.039251573
187	0x3f6c10bc	0.92213035
188	0x3f8bd0d1	1.0923101
189	0x3f5625bc	0.8365133
190	0xbea84a6a	-0.32869273
191	0xc0388f16	-2.8837333
192	0xbf00e527	-0.5034966
193	0x3df7f1ff	0.12106704
194	0x3d8df139	0.06930775
195	0xbf168f8c	-0.58812785
196	0x3fcf8793	1.6213249
197	0x3f5f3f5b	0.8720605
198	0x3dedd248	0.116123736
199	0x3fad04ab	1.351705
200	0x3f7524fb	0.9575955
201	0x3f907084	1.1284337
202	0x3fdae92a	1.7102406
203	0x3f9cb5fe	1.224304
204	0x3f4a7c5b	0.79096
205	0xbbbf3600	-0.0058352947
206	0x3f912c95	1.134173
207	0x3fd2eac6	1.6477897
208	0xbf049c1e	-0.51800716
209	0xbf27045c	-0.65241027
210	0xbf10b213	-0.5652172
211	0x3f7d1055	0.98853046
212	0xbf448da5	-0.7677863
213	0x3fa97ada	1.3240616
214	0x3fe4d24a	1.7876675
215	0xc01c7439	-2.4445937
216	0xc00498c5	-2.0718243
217	0xbeb80e7b	-0.35948548
218	0x3d80a3e0	0.06281257
219	0xbecb7b4e	-0.39742512
220	0xbed0efa5	-0.40807834
221	0x3fbbfc2d	1.4686333
222	0xbf5cf6d0	-0.86314106
223	0xbd9c643d	-0.076363064
224	0xbeb16ec8	-0.34654832
225	0x3f911b32	1.1336424
226	0x3f88a9f8	1.067687
227	0xbd08837d	-0.033328522
228	0x3fa4006c	1.2812629
229	0xbf21a1de	-0.63137615
230	0xbf5b3967	-0.85634464
231	0xbd3e2a00	-0.046426773
232	0x3f86b032	1.052252
233	0xbd82e044	-0.063904315
234	0xbf523040	-0.82104874
235	0x400bb7b6	2.1830878
236	0x3fc71bd4	1.5555367
237	0xbf514075	-0.8173898
238	0x3e591311	0.2119868
239	0xbd8f3189	-0.0699187
240	0x3dab4fe9	0.08364851
241	0xbf3352e6	-0.7004837
242	0xbf61cb28	-0.88200617
243	0xbed20bd4	-0.4102465
244	0x3d7eb068	0.062179953
245	0x3fb061c3	1.3779835
246	0xbf06c41b	-0.52642983
247	0x3ff7e9b6	1.9368198
248	0x3fa7a983	1.3098606
249	0xbfa7f2e4	-1.3120999
250	0x3d983da4	0.07433632
251	0x3ecad7c7	0.3961775
252	0x3f838b7f	1.0276946
253	0x3fb90c07	1.4456795
254	0xbf369da2	-0.7133428
255	0xbf71241a	-0.9419571

fc3.bias f4 [4]
0	0x3ec76391	0.3894315
1	0xbe8768b4	-0.2644707
2	0x3f069888	0.52576494
3	0x3e750ed9	0.23931445
