Project2/DDQN_jiahaoming/ddqn_model.pth (torch, 22566 bytes, 6 tensors)

fc1.weight f4 [64, 8]
0	0x3ebf0185	0.37305847
1	0x3d0accaf	0.033886608
2	0xbe854ac1	-0.26033595
3	0xbeb0a945	-0.34504142
4	0xbdb5ba6a	-0.08873446
5	0xbf6794a9	-0.9046121
6	0x3e95f8b1	0.292913
7	0x3e060147	0.13086425
8	0xbdd1a258	-0.10236043
9	0xbe83c3bc	-0.2573527
10	0x3f0b252b	0.5435359
11	0xbf0fd958	-0.56191015
12	0x3f12f760	0.57408714
13	0x3f8a22cc	1.0791869
14	0x3e29d0fe	0.1658363
15	0xbfc6eec9	-1.5541621
16	0xbf4ebba0	-0.80755043
17	0x3e869064	0.26282036
18	0xbf5bd27a	-0.85868037
19	0x3d63c0db	0.055603843
20	0xbf195cea	-0.599074
21	0xbeb8442c	-0.3598951
22	0x3d4ac7b3	0.049506854
23	0xbf0ffb9b	-0.56243294
24	0xbedae37e	-0.42751688
25	0xbe22ab12	-0.1588557
26	0xbf389c23	-0.72113246
27	0x3dfc9f79	0.123351045
28	0x3f669716	0.9007429
29	0x3e428f92	0.1900008
30	0x3f50c148	0.81544924
31	0x3da1eea7	0.079068474
32	0xbe052367	-0.13001786
33	0xbe7ea30f	-0.2486689
34	0xbe8998a9	-0.26874283
35	0xbe1a9455	-0.15095647
36	0x3eb96cd8	0.36215854
37	0xbd9d1d35	-0.076715864
38	0x3e5a21ca	0.21301952
39	0x3e0b6c78	0.13615596
40	0x3f46412c	0.77443194
41	0x3e53f6a8	0.2069956
42	0x3cc5eab8	0.024159774
43	0xbe79d148	-0.2439624
44	0x3f3ecffb	0.74536103
45	0x3edddfca	0.433348
46	0x3d4059cc	0.046960637
47	0xbe9be7ad	-0.30450192
48	0x3ed2577b	0.41082367
49	0x3ed18bdd	0.4092702
50	0x3e3eb00a	0.18621841
51	0x3cdf0d5d	0.027228052
52	0xbd023108	-0.03178504
53	0x3fb47326	1.409764
54	0xbeadee10	-0.3397069
55	0xbe223dee	-0.15843937
56	0x3e84cf9c	0.25939643
57	0x3f949a88	1.1609659
58	0x3f832ace	1.0247438
59	0x3ec53494	0.38516676
60	0x3fedae56	1.8568828
61	0x3fb12910	1.3840656
62	0xc0071b36	-2.1110358
63	0x3d09eab8	0.03367111
64	0x3ee629be	0.44953722
65	0xbf4b0b69	-0.79314286
66	0x3f04a10a	0.51808226
67	0xbf960522	-1.1720316
68	0xbf7581a0	-0.9590092
69	0xbe2387f0	-0.15969825
70	0xbd6130c8	-0.054978162
71	0x3e0cb3e4	0.13740498
72	0x3f43a70e	0.7642678
73	0xbd7f6c4a	-0.062359132
74	0x3db3df83	0.08782866
75	0xbe8c6746	-0.2742254
76	0x3e01c8df	0.12674282
77	0xbf3b46be	-0.7315482
78	0xbf729915	-0.94764835
79	0x3ebd7993	0.37006816
80	0xbe348e37	-0.17632376
81	0x3f984364	1.1895566
82	0x3f2d1055	0.67603046
83	0xbf1347b3	-0.5753128
84	0x3ebcc9dc	0.36872756
85	0x3eae287a	0.34015256
86	0xbd2934cd	-0.04131012
87	0x3d782d48	0.06059006
88	0x3ed706e0	0.41997433
89	0x3e0df1fb	0.1386184
90	0x3eab5664	0.33464348
91	0x3e90b9b4	0.2826668
92	0xbf009b46	-0.5023693
93	0x3f1fb723	0.6238882
94	0x3f56df31	0.83934313
95	0x3e2a3ab3	0.16623954
96	0x3ec165ed	0.37773076
97	0xbd170e05	-0.036878604
98	0x3e8e6ab6	0.2781579
99	0xbefdb271	-0.49550202
100	0x3f17da63	0.59317607
101	0x3fb537d5	1.4157664
102	0x3e179d15	0.14806016
103	0xbd8729ea	-0.06599791
104	0xbfa55aee	-1.2918375
105	0x3e37ee2c	0.17961949
106	0xbfb9162f	-1.4459895
107	0x3ec58ffc	0.38586414
108	0xbe099f37	-0.13439642
109	0xbe8a3184	-0.26990902
110	0x3e279e09	0.1636888
111	0xbdc1b6c1	-0.09458686
112	0xbe3329b0	-0.17496371
113	0x3f0ad410	0.5422983
114	0xbf242b35	-0.6412843
115	0x3f92012d	1.1406609
116	0x3f2cb121	0.6745778
117	0x3f85267e	1.0402372
118	0xbfc8a19f	-1.5674323
119	0xbe10bcd0	-0.14134526
120	0x3d3cf94d	0.04613619
121	0xbf1b6b32	-0.6071044
122	0x3e1caed5	0.15301068
123	0x3fdc2cd8	1.7201185
124	0x3fa0c660	1.2560539
125	0x3f746cec	0.954787
126	0xbddb39ab	-0.10704359
127	0x3e6fea4f	0.23429225
128	0xbeb6278b	-0.35577044
129	0x3f227692	0.63462174
130	0xbe982d3d	-0.29722014
131	0xbfb81870	-1.4382458
132	0x3efce214	0.49391234
133	0x3e32af68	0.17449725
134	0xbf16def6	-0.5893396
135	0x3dbcf8cb	0.09227141
136	0x3f409d40	0.75239944
137	0x3e51bd55	0.2048238
138	0x3e584930	0.21121669
139	0x3e334ee0	0.17510557
140	0x3de6f767	0.11277657
141	0x3f99bcd2	1.2010748
142	0xbe752d40	-0.23943043
143	0xbdc39e10	-0.095516324
144	0x3f2e121e	0.67996395
145	0x3eaad913	0.3336874
146	0x3dd079f9	0.101795144
147	0xbf3fc675	-0.74912196
148	0x3ed9ad61	0.4251509
149	0x3ebb34b2	0.3656364
150	0xbe0d8ec6	-0.13823995
151	0xbf5313ec	-0.82452273
152	0x3f026248	0.50931215
153	0x3f0f016e	0.55861557
154	0x3e491671	0.19637467
155	0x3eab4975	0.3345448
156	0xbf26b1c8	-0.6511502
157	0xbf3065fc	-0.68905616
158	0xbf05376f	-0.5203771
159	0x3f5b90c4	0.8576777
160	0x3dab2032	0.0835575
161	0x3eaeac21	0.341157
162	0xbf959fd9	-1.1689407
163	0xbd8b1887	-0.067917876
164	0x400b1f4e	2.1737857
165	0x3f89ac82	1.075577
166	0xbc5b8410	-0.013398185
167	0xbd8a1efd	-0.06744192
168	0xbe5ac7b3	-0.21365242
169	0x3f92dc82	1.1473544
170	0x3d86768e	0.06565581
171	0xbddb68b8	-0.10713333
172	0xbf42f3be	-0.7615317
173	0x3eae4813	0.34039363
174	0x3eb6dcaf	0.35715243
175	0xbf1ec996	-0.62026346
176	0xbf1aad6f	-0.6042089
177	0xbf3eb2e4	-0.74491715
178	0xbea9ebee	-0.33187813
179	0xbeb5b2a3	-0.35487852
180	0x3f416a98	0.75553274
181	0x3f70bfdd	0.9404276
182	0x3e97af7b	0.29626068
183	0x3ed5d6cb	0.41765437
184	0xbf1fc659	-0.6241203
185	0xbfac3f64	-1.3456845
186	0xbe78a471	-0.2428148
187	0xbfa68351	-1.3008825
188	0x3ee8f49e	0.45499128
189	0x3e3bed6e	0.18352291
190	0x3def6756	0.11689632
191	0x3dd35e12	0.10320677
192	0xbdb840dc	-0.08996746
193	0x3f46d76d	0.77672464
194	0xbe0e0ef3	-0.1387289
195	0xbef1f1ba	-0.47254735
196	0x3edc378c	0.4301113
197	0x40014b48	2.0202198
198	0x3f641935	0.8910096
199	0xbf0356e2	-0.5130445
200	0x3e659435	0.22419818
201	0x3e6c1cdd	0.23057885
202	0x3e0f8170	0.1401422
203	0x3eb70a99	0.35750273
204	0x3f4efa0e	0.80850303
205	0x3f56d772	0.83922493
206	0x3f55714f	0.8337602
207	0xbd948176	-0.07251255
208	0xbf07dab1	-0.5306807
209	0xbf11bafc	-0.5692594
210	0x3ea1e10e	0.31617016
211	0xbf8edaf0	-1.1160564
212	0x3ed1073b	0.4082583
213	0x3f35b812	0.70983994
214	0x3dbc5650	0.0919615
215	0x3e2c6f74	0.16839391
216	0xbf0e6096	-0.5561613
217	0xbeb9537c	-0.36196506
218	0xbe92b8d6	-0.28656644
219	0xbf44f539	-0.7693668
220	0x3f8a5c8f	1.0809497
221	0x3f3f4ac4	0.7472346
222	0xbe43c004	-0.19116217
223	0x3e71151d	0.2354321
224	0xbf750a14	-0.95718503
225	0xbfdc6d38	-1.7220831
226	0xbfbc5b66	-1.4715393
227	0xbca7b066	-0.020469856
228	0xbe56f002	-0.20989993
229	0x3f450015	0.7695325
230	0xbda72cf5	-0.08162872
231	0x3d8831d1	0.06650127
232	0xbe44fea6	-0.19237766
233	0xbed14627	-0.40873834
234	0xbd3117c7	-0.043235566
235	0xbf7c4369	-0.9854036
236	0x3f098089	0.53711754
237	0x3f371987	0.71523327
238	0x3d8e9d41	0.069635876
239	0xbcb76098	-0.022384927
240	0x3ec2d1a7	0.38050577
241	0xbc941afa	-0.01807927
242	0x3ea14c91	0.31503728
243	0x3e031b27	0.12803327
244	0x3e7d53bd	0.24738975
245	0x3f3c313d	0.7351263
246	0xbdb944c2	-0.09046318
247	0x3f312446	0.69195974
248	0xbf712ed4	-0.9421208
249	0xbd06bfc3	-0.032897722
250	0xbeaf5045	-0.34240928
251	0xbd74b0fd	-0.0597391
252	0x3f38a7f3	0.7213127
253	0x3f1fa27c	0.62357306
254	0x3e8b9225	0.27259937
255	0x3eee8fb8	0.46594024

fc1.bias f4 [64]
0	0xbe1a8fd1	-0.15093924
1	0x3f2a8a1f	0.66617006
2	0x3d972d2e	0.07381664
3	0xbea57388	-0.32314706
4	0x3f71e9a4	0.9449713
5	0x3f21daa6	0.63224256
6	0xbf1d9fcb	-0.6157195
7	0xbf398ac7	-0.7247738
8	0xbe751077	-0.23932062
9	0xbf252826	-0.64514387
10	0x3f97b7a4	1.1852918
11	0xbeb9b716	-0.36272496
12	0xbf86ea0f	-1.0540179
13	0xbe9f8d2a	-0.31162387
14	0x3f04d6a8	0.5189004
15	0x3f0237ad	0.50866205
16	0x3eb9def5	0.36302915
17	0xbf4ca533	-0.79939574
18	0x3ecc6449	0.39920262
19	0xbd843e12	-0.064571515
20	0xbeb25498	-0.34830165
21	0x3f32fd57	0.69917816
22	0x3dcac1a5	0.09900216
23	0xbe8a9529	-0.27066925
24	0x3f647bc6	0.89251363
25	0xbdda1e75	-0.106503405
26	0xbf00f370	-0.50371456
27	0x3ed89a0f	0.42305037
28	0x3edd7235	0.43251196
29	0xbed042cd	-0.40675965
30	0xbe0756bb	-0.13216679
31	0x3f2cb0bc	0.67457175
32	0xbeb244d9	-0.34818152
33	0x3f80a8f3	1.0051559
34	0x3e2fda36	0.17173085
35	0x3f56a751	0.83849055
36	0x3f10cbd1	0.56561
37	0xbf6de75c	-0.9293115
38	0xbf12365b	-0.5711419
39	0x3edeba9d	0.4350175
40	0x3f140639	0.57821995
41	0x3efec1e9	0.49757317
42	0xbf28c88c	-0.6593101
43	0x3fb01aa4	1.375813
44	0x3caef4b5	0.02135692
45	0x3fa0a866	1.2551391
46	0x3e966022	0.2937022
47	0x3e1e07b9	0.15432633
48	0x3ebd18cb	0.36932978
49	0x3e03af9b	0.12859957
50	0x3ed1349b	0.40860447
51	0x3f41ca90	0.7569971
52	0xbf0df1ef	-0.55447286
53	0x3eec2485	0.46121612
54	0x3f4d014b	0.800801
55	0xbf5601eb	-0.83596677
56	0xbc4de593	-0.012566942
57	0x3f68919b	0.90847176
58	0xbf34ea65	-0.7067016
59	0xbf0fea98	-0.56217337
60	0xbeb63ea1	-0.35594657
61	0xbec100c9	-0.37695912
62	0x3dca8a8b	0.09889706
63	0x3f7188ac	0.9434917

fc2.weight f4 [64, 64]
0	0x3e140651	0.14455535
1	0xbdb08667	-0.08619385
2	0x3f2d9e0e	0.678193
3	0x3f48c84b	0.7843062
4	0xbe9d536e	-0.30727714
5	0xbd4eab5d	-0.050456394
6	0xbea942f3	-0.3305889
7	0x3bef2910	0.007298596
8	0x3f49c306	0.7881321
9	0x3f2ecba5	0.68279487
10	0xbf277134	-0.6540711
11	0x3fbdc486	1.4825599
12	0x3f2268fd	0.6344145
13	0x3f8e3ced	1.1112343
14	0x3f9bd150	1.2173252
15	0xbfa0d49f	-1.2564887
16	0x3f527138	0.8220401
17	0xbe7743b0	-0.24146914
18	0x3e9a93c4	0.3019086
19	0x3e866e84	0.26256192
20	0x3ea62049	0.32446507
21	0xbd06d2fa	-0.032916047
22	0x3efc28aa	0.49249774
23	0x3fa0acb8	1.255271
24	0xbeaa21b3	-0.33228835
25	0x3ee63834	0.44964755
26	0x3f461c11	0.77386576
27	0x3f22b3ef	0.63555807
28	0xbf7d62a2	-0.98978627
29	0x3f76c604	0.963959
30	0x3ee4fb18	0.4472282
31	0x3e8476fa	0.25872022
32	0x3f35c19d	0.70998555
33	0xbebf0714	-0.37310088
34	0x3e0a3f50	0.13500714
35	0xbeb84a9b	-0.3599442
36	0xbedaea04	-0.42756665
37	0x3ed08328	0.40725064
38	0x3f0ed557	0.5579428
39	0xbf002707	-0.5005955
40	0x3ed13c81	0.40866473
41	0x3ea1b9f6	0.3158719
42	0x3f47a643	0.7798807
43	0xbf6430e1	-0.89137083
44	0x3f2bc552	0.6709796
45	0xbee88c2c	-0.45419443
46	0x3f10fbf7	0.5663447
47	0x3d928579	0.07154364
48	0x3f09f41d	0.5388811
49	0x3f7943d0	0.973691
50	0xbd6d084d	-0.057869244
51	0xbe1ccba2	-0.15312055
52	0x3fa77eef	1.3085612
53	0x3e6d299d	0.23160405
54	0xbf0b4830	-0.54407024
55	0x3dcc8bdd	0.09987614
56	0x3e36bcd8	0.17845476
57	0xbe400cb2	-0.18754843
58	0x3ff754e3	1.932278
59	0x3f85fb64	1.0467343
60	0x3f770fc1	0.96508414
61	0x3e6da917	0.23209034
62	0x3eff49b6	0.49860924
63	0xbe435b3e	-0.19077775
64	0x3ead457b	0.33842072
65	0x3fa41a63	1.2820553
66	0xbefa9a09	-0.48945644
67	0xbe789741	-0.24276449
68	0x3edde4ab	0.43338522
69	0x3e02bad2	0.12766579
70	0x3dfbb204	0.12289813
71	0x3fa3ed2f	1.2806758
72	0x3e870349	0.26369694
73	0x3e8b52e2	0.27211672
74	0xbf323025	-0.6960471
75	0xbca76179	-0.02043222
76	0xbf24eb69	-0.6442171
77	0xbcefa0e5	-0.029251525
78	0xbfceafb4	-1.614737
79	0xbe9c9f85	-0.30590454
80	0xbf0d655b	-0.5523278
81	0x3e328319	0.17432822
82	0xbf0e60f3	-0.5561668
83	0xbdae7dc9	-0.08520085
84	0xbe9acd9d	-0.30234995
85	0xbf050e28	-0.51974726
86	0x3f2f0231	0.6836272
87	0xbe2f3758	-0.17110956
88	0xbcbb0a61	-0.022832097
89	0xbf92d4fc	-1.1471248
90	0xbf7c9efd	-0.98680097
91	0x3e81e724	0.2537166
92	0xbf8cdb66	-1.1004455
93	0x3ef39398	0.47573543
94	0xbf4aad86	-0.79171026
95	0x3ede2341	0.43386272
96	0xbf57628f	-0.84134763
97	0x3f329283	0.6975481
98	0x3ec493db	0.38394055
99	0xbe8fa3ca	-0.2805465
100	0x3f144e91	0.5793238
101	0x3e453fb0	0.19262576
102	0xbede7b82	-0.43453604
103	0x3f600f20	0.8752308
104	0xbf67767e	-0.9041518
105	0x3f8f2f62	1.1186335
106	0xbf916f59	-1.1362106
107	0xbefb0dfb	-0.49034104
108	0xbf33cf1e	-0.7023791
109	0x3ea30a78	0.31843925
110	0xbee19b68	-0.44063878
111	0x3dfdead1	0.12398303
112	0x3ee89048	0.45422578
113	0x3debb80a	0.11509712
114	0x3ed01cfd	0.40647116
115	0x3e571ebc	0.21007818
116	0x3e561f1f	0.2091031
117	0x3e6e1af9	0.23252477
118	0xbd864d3f	-0.06557702
119	0x3fd6e7a1	1.6789438
120	0xbf2725dd	-0.6529215
121	0xbee0e367	-0.43923494
122	0xbfc51551	-1.539713
123	0x3ee217e3	0.4415885
124	0x3e9ac191	0.30225804
125	0x3ed9b0be	0.42517656
126	0x3e21a821	0.15786792
127	0x3e71dbbd	0.2361898
128	0x3e669d25	0.22520883
129	0xbeb10798	-0.34576106
130	0xbe2089cf	-0.1567757
131	0x3ee51a0a	0.4474643
132	0x3e758fee	0.23980686
133	0x3ed38e54	0.41319525
134	0xbf3ee994	-0.7457516
135	0xbd4202db	-0.047366004
136	0xbf4a684f	-0.7906541
137	0x3ec7869b	0.38969883
138	0x3f202ac4	0.62565255
139	0x3d7317eb	0.05934898
140	0xbd808c85	-0.06276802
141	0x3c01980b	0.007909785
142	0x3f41404e	0.75488746
143	0x3d09bcdf	0.033627387
144	0x3f26b6e1	0.651228
145	0xbf1b82ef	-0.60746664
146	0x3e35791c	0.17721981
147	0x3efcc879	0.49371698
148	0x3eabcafc	0.33553302
149	0x3ee2b6b1	0.44280007
150	0xbe6589bd	-0.22415824
151	0xbf09e4e8	-0.5386491
152	0xbebcc7c7	-0.36871168
153	0x3eb5821f	0.35450837
154	0xbf9727d7	-1.1809033
155	0xbee0313b	-0.4378756
156	0xbf91dc8d	-1.1395432
157	0xbfa10679	-1.25801
158	0x3dbe10c1	0.09280539
159	0xbdfa0c18	-0.12209338
160	0x3d3ebb9b	0.046565633
161	0x3d1285c6	0.035772108
162	0xbb804f5d	-0.003915711
163	0x3e01a05d	0.1265883
164	0x3e92946d	0.28628865
165	0x3f1d7af8	0.6151576
166	0xbec378d8	-0.38178134
167	0xbf2d0ac8	-0.67594576
168	0x3f26871f	0.6504993
169	0x3d62408d	0.05523734
170	0x3df0a52e	0.117502555
171	0x3f202443	0.6255533
172	0x3d937a1a	0.072010234
173	0x3eb73c2b	0.35788092
174	0xbe496529	-0.19667496
175	0xbe5838d7	-0.21115433
176	0x3d050b12	0.03248126
177	0xbed78f17	-0.42101356
178	0xbed79712	-0.42107445
179	0xbe307b01	-0.17234422
180	0xbf6ec6ca	-0.9327208
181	0xbedd793f	-0.43256566
182	0xbe171b4a	-0.14756504
183	0x3f875f85	1.0576025
184	0x3da37b37	0.07982486
185	0x3e3e6f49	0.1859714
186	0x3dc4da1d	0.09611914
187	0xbf464e56	-0.7746328
188	0xbee30c7c	-0.44345462
189	0x3e7121cf	0.23548053
190	0x3e582bc1	0.21110441
191	0x3e0dddbd	0.13854118
192	0x3e3abb58	0.18235528
193	0xbd37743a	-0.044788577
194	0x3f1338f5	0.57508785
195	0x3f48613d	0.78273374
196	0xbeb562a1	-0.3542681
197	0xbd2af91f	-0.041741487
198	0xbe80c6e7	-0.2515175
199	0xbe3728de	-0.17886683
200	0x3f2a79fb	0.6659238
201	0x3f0162e1	0.505415
202	0xbf13f5f2	-0.5779716
203	0x3fb69f82	1.4267428
204	0x3f2f5ca2	0.6850072
205	0x3f84bcad	1.0370079
206	0x3f9123fd	1.1339108
207	0xbfa1b90f	-1.26346
208	0x3f3eaf4d	0.7448624
209	0xbeaa7c2a	-0.33297855
210	0x3e87940f	0.26480147
211	0x3e865e88	0.26243997
212	0x3e846b25	0.25862995
213	0x3e1b1fee	0.15148899
214	0x3f027795	0.5096372
215	0x3f9a25f1	1.2042829
216	0xbefa7d4e	-0.48923725
217	0x3edaf7d5	0.42767206
218	0x3f70fc59	0.9413505
219	0x3f19fb5e	0.6014918
220	0xbf85c5ea	-1.0451024
221	0x3f4fed71	0.8122168
222	0x3f18ad83	0.5963976
223	0x3db1a235	0.08673517
224	0x3f227dfe	0.634735
225	0xbeda03ac	-0.42580926
226	0x3e57c6fb	0.21071999
227	0xbebfac0f	-0.37435958
228	0xbf02641c	-0.50934005
229	0x3e95acb3	0.29233322
230	0x3f23e6e9	0.64024216
231	0xbf0c8f8d	-0.5490654
232	0x3ed8bd38	0.42331862
233	0x3dc75bab	0.09734281
234	0x3f546cef	0.8297872
235	0xbf3c86e7	-0.73643345
236	0x3f4a838e	0.79106987
237	0xbf057bac	-0.52141833
238	0x3ef03508	0.4691546
239	0x3e2dfb95	0.16990502
240	0x3f129dc0	0.5727196
241	0x3f92a52a	1.1456654
242	0xbd9c944a	-0.076454714
243	0xbe83b367	-0.2572281
244	0x3f931283	1.1490024
245	0x3eb27cac	0.34860742
246	0xbf0a7878	-0.5409007
247	0x3f0f39c5	0.55947524
248	0x3ea42f45	0.32067314
249	0xbe3d0324	-0.1845823
250	0x3fc8e1a8	1.5693865
251	0x3f7cd0a2	0.9875585
252	0x3f8809b4	1.0627961
253	0x3ec16645	0.37773338
254	0x3f10ee42	0.5661355
255	0xbe7f62dd	-0.24940057

fc2.bias f4 [64]
0	0xbf11f23b	-0.5701024
1	0xbe3e2bf6	-0.18571457
2	0x3f0d866c	0.55283237
3	0xbf1b2d70	-0.6061621
4	0x3db66ad3	0.08907094
5	0x3e1e1bd8	0.15440309
6	0x3d572c75	0.052532632
7	0x3bf8fbc0	0.0075983703
8	0x3a64a8a3	0.00087226386
9	0xbdbce596	-0.092234775
10	0x3d7a0db9	0.061048243
11	0xbd8846b9	-0.06654114
12	0x3df85d5c	0.12127182
13	0x3d9bba7b	0.07603928
14	0x3ede55c6	0.43424815
15	0xbe42cb5f	-0.19022892
16	0x3ef5a12b	0.47974524
17	0xbd250939	-0.040292
18	0xbf247b3b	-0.64250535
19	0xbcddfcd8	-0.027098104
20	0x3d9b9a0d	0.07597742
21	0xbd1e6090	-0.038666308
22	0x3e343f3e	0.1760225
23	0x3dbd7270	0.09250343
24	0xbdaa1fd6	-0.083068535
25	0x3efc49bb	0.49275002
26	0xbe234be1	-0.15946914
27	0xbf28d664	-0.65952134
28	0x3e56c36d	0.20972987
29	0xbd4ee8ab	-0.05051486
30	0x3bfe040e	0.007751948
31	0xbf025a50	-0.50919056
32	0x3e6897bb	0.2271413
33	0x3fabae69	1.3412601
34	0xbd92feb7	-0.07177489
35	0xbe25dfc0	-0.16198635
36	0x3f34de5f	0.7065181
37	0x3df98511	0.121835835
38	0x3f10a34d	0.5649918
39	0xbd406b85	-0.04697754
40	0xbdd5b8ad	-0.10435615
41	0x3d90ed2c	0.07076487
42	0xbcaddd09	-0.021223562
43	0x3e5d231a	0.21595421
44	0xbf15b293	-0.5847561
45	0x3d1921da	0.0373858
46	0x3e97cfa6	0.2965061
47	0x3dd932d6	0.10605399
48	0xbf2be43b	-0.6714513
49	0xba6ee03e	-0.0009112394
50	0x3f5276b4	0.82212377
51	0x3e1e372d	0.15450735
52	0xbd1e89b8	-0.038705558
53	0xbd3ec091	-0.046570364
54	0xbdcdcb95	-0.10048596
55	0x3f7af8ce	0.98035896
56	0x3faff8f7	1.3747853
57	0xbf184816	-0.59484994
58	0x3d9ff952	0.07811226
59	0x3e8fa391	0.2805448
60	0xbebe3c64	-0.3715545
61	0xbec31e63	-0.3810912
62	0x3dbf8e59	0.093533225
63	0xbed4d1fa	-0.4156645

fc3.weight f4 [4, 64]
0	0xbf8af70c	-1.0856643
1	0x3fa1e214	1.2647119
2	0x3cade2e4	0.021226354
3	0xbf7cfa4b	-0.98819417
4	0xbf0731e3	-0.52810496
5	0xbf0d92d8	-0.5530219
6	0xbe96331a	-0.29335862
7	0xbef9cb62	-0.4878798
8	0xbfc61c1b	-1.5477327
9	0x3d74fdb4	0.059812263
10	0xbe938686	-0.2881357
11	0x3dba9df8	0.091121614
12	0xbf0ccd5a	-0.5500084
13	0xbed54475	-0.4165379
14	0xbee74e52	-0.4517694
15	0x3f4f431c	0.80961776
16	0x3d8f4871	0.06996239
17	0xbeb80ec6	-0.3594877
18	0xbf824b8f	-1.0179309
19	0x3f8ab6e0	1.0837059
20	0xbf0c9b11	-0.5492411
21	0xbd86e4f4	-0.06586638
22	0xbf001826	-0.5003685
23	0xbf03ce40	-0.5148659
24	0xbf963f21	-1.1738015
25	0x3d37e194	0.044892862
26	0xbfa05cd8	-1.2528334
27	0xbf9696cb	-1.1764768
28	0xbf06f3b3	-0.52715605
29	0x3d78b945	0.06072356
30	0xbeef2624	-0.46708786
31	0xbfa17364	-1.261334
32	0xbfb31307	-1.3990182
33	0x40154c60	2.3327866
34	0x3c911589	0.017710464
35	0x3d1fd75b	0.03902374
36	0x3faaf08a	1.3354657
37	0xbfacec3a	-1.3509591
38	0xbe738352	-0.23780563
39	0x3d42cfa2	0.047561295
40	0xbe8cadb6	-0.2747628
41	0xbeeecb25	-0.46639362
42	0xbee42b88	-0.44564462
43	0xbf05a1ea	-0.52200186
44	0xbf8c7b32	-1.0975096
45	0x3d7fab18	0.062419027
46	0x402458ef	2.567928
47	0xbeca9a46	-0.39570826
48	0xbf8887d7	-1.0666455
49	0xbf0acdeb	-0.54220456
50	0x40129f13	2.2909591
51	0xbefcf621	-0.4940653
52	0xbeb4d417	-0.35318062
53	0xbf4a5fd3	-0.79052466
54	0xbf9b18fa	-1.2116997
55	0x3fe893ad	1.8170067
56	0x40204e32	2.5047727
57	0xbf7aa62f	-0.97909826
58	0xbee01066	-0.4376251
59	0xbf06b9dc	-0.5262735
60	0x3fb8f3d4	1.444941
61	0xbebf941e	-0.37417692
62	0x400f6aed	2.2409012
63	0xbf52e8d3	-0.8238651
64	0xbfd354f2	-1.6510298
65	0x3eb89ae3	0.3605567
66	0xbe226cbb	-0.1586179
67	0xbfb3f5dc	-1.4059405
68	0xbebefab1	-0.37300637
69	0xbeaabf8c	-0.33349264
70	0xbf25575b	-0.6458642
71	0xbe9a66da	-0.30156595
72	0xbf9d91fb	-1.2310175
73	0x3d83685b	0.064163886
74	0xbf324135	-0.6963075
75	0xbd097f82	-0.033568867
76	0xbeb43a0c	-0.35200536
77	0xbf140151	-0.5781451
78	0xbf1ccf72	-0.61254036
79	0x3f94b3d0	1.1617374
80	0x3ea8a731	0.32940057
81	0xbef2c396	-0.47414845
82	0xbf8397e0	-1.0280724
83	0x3fa42714	1.2824426
84	0xbeefa72d	-0.46807232
85	0xbd9e1988	-0.077197134
86	0xbef58f3e	-0.47960848
87	0xbefbfa7f	-0.4921455
88	0xbf9de111	-1.233431
89	0x3ee84f85	0.4537317
90	0xbfe93b1a	-1.8221161
91	0xbf658bed	-0.89666635
92	0xbf1b42c5	-0.6064876
93	0x3d721258	0.059099525
94	0xbebdb5e9	-0.3705285
95	0xbfc00e27	-1.5004319
96	0xbcba7d06	-0.022764694
97	0x401919fe	2.3922114
98	0x3c9d8c19	0.019231843
99	0x3d9ca347	0.0764833
100	0x3f93674d	1.15159
101	0xbf86861e	-1.0509679
102	0x3f52a7c4	0.8228724
103	0xbc535b91	-0.012900249
104	0xbf2263ac	-0.6343334
105	0xbf03f334	-0.51542974
106	0xbebae1c6	-0.36500376
107	0xbeb9df84	-0.3630334
108	0xbf9ce906	-1.2258613
109	0x3dd28a53	0.102802895
110	0x4022bf50	2.5429268
111	0xbf01b634	-0.50668645
112	0xbf693dd7	-0.91109985
113	0xbefed644	-0.49772847
114	0x400d6db9	2.209822
115	0xbeee3099	-0.46521452
116	0xbf143d6b	-0.57906216
117	0xc00114ea	-2.0169015
118	0xbff873d5	-1.9410349
119	0x3fdbda7b	1.717605
120	0x402040b2	2.5039487
121	0xbf85428a	-1.0410931
122	0xbf1542dd	-0.5830515
123	0xbe04f7ed	-0.12985201
124	0x3fea2c3c	1.8294749
125	0xbe8bd4ea	-0.27310878
126	0x40145755	2.3178303
127	0xbf5036a9	-0.81333405
128	0xbf7cdd68	-0.9877534
129	0x4016762a	2.3509622
130	0xbf6b11ab	-0.91823834
131	0xbfa1a7a6	-1.2629287
132	0xbebd9831	-0.37030175
133	0xbecf809a	-0.40527803
134	0xbeddf8a7	-0.4335377
135	0xbeb5f686	-0.35539645
136	0xbfbb53f6	-1.4634998
137	0x3ae04280	0.0017109662
138	0xbeee5a73	-0.46553382
139	0xbc0b13d6	-0.008488616
140	0xbebe3d3a	-0.37156087
141	0xbea8571b	-0.32878956
142	0xbf3b6a3a	-0.73208964
143	0x3dc0638a	0.093939856
144	0xbf5c710b	-0.8610999
145	0xbeaebce0	-0.34128475
146	0xbf8158fb	-1.010528
147	0x3f455ba6	0.7709297
148	0xbeb50e6f	-0.35362574
149	0xbd023d60	-0.031796813
150	0xbe7e9945	-0.24863155
151	0xbedab00d	-0.4271244
152	0xbfe19ce1	-1.7626001
153	0x3eaf6ce9	0.3426278
154	0xbfbf88ed	-1.4963661
155	0xbf6d4de2	-0.92696965
156	0xbef0d8bd	-0.47040358
157	0xbdabe334	-0.08392945
158	0xbeca0565	-0.3945724
159	0xbf901c14	-1.1258569
160	0xbf8b88eb	-1.0901159
161	0x4001c269	2.0274909
162	0x3dafd894	0.08586231
163	0x3d57b3d4	0.05266173
164	0x3fb11e4f	1.3837374
165	0x3df149ff	0.11781692
166	0xbf48a04d	-0.783696
167	0x3d5be846	0.05368831
168	0xbe205462	-0.1565719
169	0xbeaccdb3	-0.33750686
170	0xbefa8896	-0.48932332
171	0xbebfc7c6	-0.37457103
172	0xbf470eb9	-0.7775684
173	0x3ce50fce	0.027961638
174	0x402c2a8e	2.6900973
175	0xbea86ae6	-0.32894057
176	0xbf81fc83	-1.0155185
177	0xbe73803b	-0.23779385
178	0x401abcb5	2.4177678
179	0xbeed2299	-0.46315458
180	0xbecd4dcf	-0.40098426
181	0xbfd4f78e	-1.6638048
182	0xbfccafd4	-1.5991158
183	0x40277e4e	2.617084
184	0x40193803	2.3940437
185	0xbf8a06a8	-1.0783281
186	0xbea11323	-0.31459913
187	0xbe9d9a39	-0.30781725
188	0x3fbe6b1f	1.4876441
189	0xbfac29e0	-1.3450279
190	0x3ffcb024	1.9741254
191	0xbfb3be76	-1.4042499
192	0xbf3f9002	-0.74829113
193	0x3f5c6702	0.8609468
194	0xbca8bb42	-0.020597104
195	0xbf41837e	-0.75591266
196	0xbef59f14	-0.4797293
197	0xbeae6967	-0.3406479
198	0xbed33c14	-0.41256773
199	0xbef66a28	-0.48127866
200	0xbfcf2fb3	-1.6186432
201	0x3d13c5fc	0.036077484
202	0xbececb81	-0.40389636
203	0xbbf14822	-0.007363335
204	0xbf0bf240	-0.5466652
205	0xbf10bb48	-0.5653577
206	0x3e29f0f5	0.16595824
207	0x3ed0910f	0.4073567
208	0xbf33947a	-0.7014843
209	0xbefdb1ff	-0.49549863
210	0xbfac5f81	-1.3466645
211	0x3fd00539	1.6251594
212	0xbef62d82	-0.48081595
213	0xbde754ba	-0.11295457
214	0xbea28b42	-0.3174687
215	0xbee39d90	-0.44456148
216	0xbf322c95	-0.69599277
217	0xbf700305	-0.9375461
218	0xbfd2cb40	-1.6468277
219	0xbf8bf30b	-1.0933546
220	0xbf03d15e	-0.51491344
221	0x3da2f73a	0.07957311
222	0xbf03070d	-0.51182634
223	0xbf2f19cd	-0.68398744
224	0xc0089d1f	-2.13459
225	0x40121249	2.282366
226	0x3d959a9e	0.073048815
227	0x3da53384	0.080664665
228	0x3fb211a1	1.391163
229	0xbfcf3780	-1.6188812
230	0xbe821e74	-0.2541386
231	0x3c27c599	0.010239982
232	0xbf27d7d3	-0.65563697
233	0xbebb5ff4	-0.36596644
234	0xbefde7ca	-0.49590904
235	0xbe9864a6	-0.2976429
236	0xbfa38044	-1.2773519
237	0xba24f30f	-0.0006292322
238	0x401371f2	2.3038297
239	0xbe95c74a	-0.29253608
240	0xbfc4db1e	-1.5379369
241	0xbeab6f14	-0.33483183
242	0x3ffe8a4d	1.9885956
243	0xbedc0467	-0.4297211
244	0xbe9d9674	-0.3077885
245	0xbf40c17b	-0.7529523
246	0xbb7cba6f	-0.0038563272
247	0x4009722e	2.147594
248	0x402229cc	2.533801
249	0xbfb4711d	-1.409702
250	0xbf1e7720	-0.6190052
251	0xbf460990	-0.7735834
252	0x3f851d8b	1.0399641
253	0xbe9ab7f6	-0.30218476
254	0x4012554c	2.286456
255	0xbf51038c	-0.8164604

fc3.bias f4 [4]
0	0xbe056e83	-0.13030438
1	0x3f08a773	0.5338051
2	0x3e2bd28f	0.1677954
3	0x3eda7950	0.4267068
